…
15509it [00:00, 25941.58it/s]
18120it [00:00, 25991.40it/s]
20675it [00:00, 25856.07it/s]
23110it [00:00, 20452.16it/s]
25675it [00:01, 21775.62it/s]
28265it [00:01, 22866.33it/s]
30618it [00:01, 20291.91it/s]
33240it [00:01, 21768.24it/s]
35517it [00:01, 19838.01it/s]
36850it [00:01, 22694.56it/s]

0it [00:00, ?it/s]
1646it [00:00, 14152.75it/s]
4120it [00:00, 16236.80it/s]
4940it [00:00, 19853.91it/s]

0it [00:00, ?it/s]
1847it [00:00, 18469.31it/s]
3568it [00:00, 18069.14it/s]
4940it [00:00, 19228.75it/s]
Loading data...
Vocab size: 4762
Time usage: 0:00:02
<bound method Module.parameters of Model(
  (embedding): Embedding(4762, 300)
  (postion_embedding): Positional_Encoding(
    (dropout): Dropout(p=0.5)
  )
  (encoder): Encoder(
    (attention): Multi_Head_Attention(
      (fc_Q): Linear(in_features=300, out_features=300, bias=True)
      (fc_K): Linear(in_features=300, out_features=300, bias=True)
      (fc_V): Linear(in_features=300, out_features=300, bias=True)
      (attention): Scaled_Dot_Product_Attention()
      (fc): Linear(in_features=300, out_features=300, bias=True)
      (dropout): Dropout(p=0.5)
      (layer_norm): LayerNorm(torch.Size([300]), eps=1e-05, elementwise_affine=True)
    )
    (feed_forward): Position_wise_Feed_Forward(
      (fc1): Linear(in_features=300, out_features=1024, bias=True)
      (fc2): Linear(in_features=1024, out_features=300, bias=True)
      (dropout): Dropout(p=0.5)
      (layer_norm): LayerNorm(torch.Size([300]), eps=1e-05, elementwise_affine=True)
    )
  )
  (encoders): ModuleList(
    (0): Encoder(
      (attention): Multi_Head_Attention(
        (fc_Q): Linear(in_features=300, out_features=300, bias=True)
        (fc_K): Linear(in_features=300, out_features=300, bias=True)
        (fc_V): Linear(in_features=300, out_features=300, bias=True)
        (attention): Scaled_Dot_Product_Attention()
        (fc): Linear(in_features=300, out_features=300, bias=True)
        (dropout): Dropout(p=0.5)
        (layer_norm): LayerNorm(torch.Size([300]), eps=1e-05, elementwise_affine=True)
      )
      (feed_forward): Position_wise_Feed_Forward(
        (fc1): Linear(in_features=300, out_features=1024, bias=True)
        (fc2): Linear(in_features=1024, out_features=300, bias=True)
        (dropout): Dropout(p=0.5)
        (layer_norm): LayerNorm(torch.Size([300]), eps=1e-05, elementwise_affine=True)
      )
    )
    (1): Encoder(
      (attention): Multi_Head_Attention(
        (fc_Q): Linear(in_features=300, out_features=300, bias=True)
        (fc_K): Linear(in_features=300, out_features=300, bias=True)
        (fc_V): Linear(in_features=300, out_features=300, bias=True)
        (attention): Scaled_Dot_Product_Attention()
        (fc): Linear(in_features=300, out_features=300, bias=True)
        (dropout): Dropout(p=0.5)
        (layer_norm): LayerNorm(torch.Size([300]), eps=1e-05, elementwise_affine=True)
      )
      (feed_forward): Position_wise_Feed_Forward(
        (fc1): Linear(in_features=300, out_features=1024, bias=True)
        (fc2): Linear(in_features=1024, out_features=300, bias=True)
        (dropout): Dropout(p=0.5)
        (layer_norm): LayerNorm(torch.Size([300]), eps=1e-05, elementwise_affine=True)
      )
    )
  )
  (fc1): Linear(in_features=9600, out_features=3, bias=True)
)>
Epoch [1/20]
Iter:      0,  Train Loss:   1.2,  Train Acc: 28.91%,  Val Loss:   2.7,  Val Acc: 77.78%,  Time: 0:00:01 *
Iter:    100,  Train Loss:  0.76,  Train Acc: 78.12%,  Val Loss:  0.77,  Val Acc: 77.78%,  Time: 0:00:04 *
Iter:    200,  Train Loss:  0.71,  Train Acc: 76.56%,  Val Loss:  0.69,  Val Acc: 77.78%,  Time: 0:00:07 *
Epoch [2/20]
Iter:    300,  Train Loss:  0.78,  Train Acc: 74.22%,  Val Loss:  0.67,  Val Acc: 77.78%,  Time: 0:00:12 *
…
